# YOLOv5 🚀 by Ultralytics, GPL-3.0 license

# Parameters
nc: 80  # number of classes
depth_multiple: 0.33  # model depth multiple
width_multiple: 0.50  # layer channel multiple
anchors:
  - [ 9,11, 10,18, 17,13 ]  #P2/4
  - [ 30,17, 16,34, 34,32 ]  # P3/8
  - [ 26,68, 72,50, 52,137 ]  # P4/16
  - [ 135,191, 99,275, 519,427 ]  # P5/32

# YOLOv5 v6.0 backbone
backbone:
  # [from, number, module, args]
  [[-1, 1, Conv, [64, 6, 2, 2]],  # 0-P1/2
   [-1, 1, Conv, [128, 3, 2]],  # 1-P2/4
   [-1, 3, C3, [128]],
   [-1, 1, Conv, [256, 3, 2]],  # 3-P3/8
   [-1, 6, C3, [256]],
   [-1, 1, Conv, [512, 3, 2]],  # 5-P4/16
   [-1, 9, C3, [512]],
   [-1, 1, Conv, [1024, 3, 2]],  # 7-P5/32
   [-1, 3, C3, [1024]],
   [-1, 1, SPPF, [1024, 5]],  # 9
  ]

# YOLOv5 v6.0 head with (P2, P3, P4, P5) outputs
head:
  [[-1, 1, Conv, [512, 1, 1]],
#   [-1, 1, nn.Upsample, [None, 2, 'nearest']],
   [-1, 1, nn.ConvTranspose2d, [512, 2, 2, 0]],
   [[-1, 6], 1, Concat, [1]],  # cat backbone P4
   [-1, 3, C3, [512, False]],  # 13

   [-1, 1, Conv, [512, 1, 1]], #40*40
#   [-1, 1, nn.Upsample, [None, 2, 'nearest']],
   [-1, 1, nn.ConvTranspose2d, [512, 2, 2, 0]],
   [[-1, 4], 1, Concat, [1]],  # cat backbone P3   80*80
   [-1, 3, C3, [512, False]],  # 17 (P3/8-small)

   [-1, 1, Conv, [256, 1, 1]], #18  80*80
#   [-1, 1, nn.Upsample, [None, 2, 'nearest']], #19  160*160
   [-1, 1, nn.ConvTranspose2d, [256, 2, 2, 0]],
   [[-1, 2], 1, Concat, [1]], #20 cat backbone p2  160*160
   [-1, 3, C3, [256, False]], #21 160*160

   [-1, 1, Conv, [256, 3, 2]],  #22   80*80
   [[ -1, 18], 1, Concat, [1]], #23 80*80
   [-1, 3, C3, [256, False]] , #24 80*80

   [-1, 1, Conv, [256, 3, 2]], #25  40*40
   [[-1, 14], 1, Concat, [1]],  # 26  cat head P4  40*40
   [-1, 3, C3, [512, False]],  # 27 (P4/16-medium) 40*40

   [-1, 1, Conv, [512, 3, 2]],  #28  20*20
   [[ -1, 10 ], 1, Concat, [1]],  #29 cat head P5  #20*20
   [-1, 3, C3, [1024, False]],  # 30 (P5/32-large)  20*20

   [[21, 24, 27, 30 ], 1, Detect, [nc, anchors]],  # Detect(P2, P3, P4, P5)
  ]